…
-qa-mpnet-base-dot-v1\"\n","tokenizer = AutoTokenizer.from_pretrained(model_ckpt)\n","model = AutoModel.from_pretrained(model_ckpt)"]},{"cell_type":"code","execution_count":13,"metadata":{"id":"CBFbjWK-_YrL","colab":{"base_uri":"https://localhost:8080/"},"executionInfo":{"status":"ok","timestamp":1688813433840,"user_tz":-540,"elapsed":6027,"user":{"displayName":"Jing Wora","userId":"14098338404840441752"}},"outputId":"c2582ad0-2a48-49bb-ce16-dc526936ebc0"},"outputs":[{"output_type":"execute_result","data":{"text/plain":["MPNetModel(\n","  (embeddings): MPNetEmbeddings(\n","    (word_embeddings): Embedding(30527, 768, padding_idx=1)\n","    (position_embeddings): Embedding(514, 768, padding_idx=1)\n","    (LayerNorm): LayerNorm((768,), eps=1e-05, elementwise_affine=True)\n","    (dropout): Dropout(p=0.1, inplace=False)\n","  )\n","  (encoder): MPNetEncoder(\n","    (layer): ModuleList(\n","      (0-11): 12 x MPNetLayer(\n","        (attention): MPNetAttention(\n","          (attn): MPNetSelfAttention(\n","            (q): Linear(in_features=768, out_features=768, bias=True)\n","            (k): Linear(in_features=768, out_features=768, bias=True)\n","            (v): Linear(in_features=768, out_features=768, bias=True)\n","            (o): Linear(in_features=768, out_features=768, bias=True)\n","            (dropout): Dropout(p=0.1, inplace=False)\n","          )\n","          (LayerNorm): LayerNorm((768,), eps=1e-05, elementwise_affine=True)\n","          (dropout): Dropout(p=0.1, inplace=False)\n","        )\n","        (intermediate): MPNetIntermediate(\n","          (dense): Linear(in_features=768, out_features=3072, bias=True)\n","          (intermediate_act_fn): GELUActivation()\n","        )\n","        (output): MPNetOutput(\n","          (dense): Linear(in_features=3072, out_features=768, bias=True)\n","          (LayerNorm): LayerNorm((768,), eps=1e-05, elementwise_affine=True)\n","          (dropout): Dropout(p=0.1, inplace=False)\n","        )\n","      )\n","    )\n","    (relative_attention_bias): Embedding(32, 12)\n","  )\n","  (pooler): MPNetPooler(\n","    (dense): Linear(in_features=768, out_features=768, bias=True)\n","    (activation): Tanh()\n","  )\n",")"]},"metadata":{},"execution_count":13}],"source":["import torch\n","\n","device = torch.device('cuda') if torch.cuda.is_available() else torch.device('cpu')\n","\n","model.to(device)"]},{"cell_type":"markdown","source":["## Embeddingst"],"metadata":{"id":"WyR_PUQfF1HA"}},{"cell_type":"code","execution_count":1
…
